AP/Aula3-5/AP_Aula3.3_PL/CNNModel_1.pth (torch, 367981 bytes, 8 tensors)

weight f4 [32, 1, 3, 3]
000000 c4 42 44 3e 33 e6 85 3e 18 b9 9d be 5d 30 8e be
       0.19166094 0.2615219 -0.30805278 -0.27771273
000010 a7 ce 91 be 4c c6 58 be cc 88 97 3e ad 20 ea bd
       -0.28477976 -0.21169394 0.29596555 -0.11432014
000020 db 98 5d 3e c8 11 6f be 0d b0 11 3e 07 f7 80 3d
       0.21640341 -0.23346627 0.14227314 0.06297117
000030 ed b1 4d 3e 22 60 89 3d d5 69 ad bd 2b 89 a4 3e
       0.20087405 0.06707789 -0.084674515 0.321359
000040 f3 59 90 be 6f fb 75 be 45 22 22 3c db fa 9d 3e
       -0.28193626 -0.24021696 0.009895866 0.3085545
000050 d5 69 48 3e 50 c2 31 be 68 17 12 be 5a 5b 1a 3e
       0.19571622 -0.1735928 -0.14266741 0.1507391
000060 79 c7 31 3e bf ff 7d 3e 0c eb 3a 3e 51 9b 55 be
       0.17361249 0.2480459 0.18253726 -0.2086003
000070 e5 d8 99 be 97 63 0f be a6 1c 0f 3e 22 c3 5d be
       -0.3004829 -0.14002834 0.13975772 -0.21656469
000080 1c 4a b8 be b1 d1 00 3a 8d 3a 41 be d2 89 5f be
       -0.3599404 0.0004914059 -0.18869992 -0.21829918
000090 22 66 d6 bd f8 42 3b be 88 cd f2 3c f1 b0 94 bd
       -0.10468699 -0.18287265 0.02963902 -0.072603114
0000a0 49 72 b0 bd 61 69 97 3e ff 7a 2a be 77 6f 47 be
       -0.08615548 0.29572585 -0.16648482 -0.19476114
0000b0 1b 28 be 3d ad d5 c7 bd 80 42 46 be b3 56 83 3d
       0.09284993 -0.09757552 -0.19361305 0.06413021
0000c0 4a 3f ce 3c d6 6c a0 be 13 09 a9 3e 7e 82 68 be
       0.025176663 -0.31333035 0.33014736 -0.22706029
0000d0 51 c2 da bd d5 df 9e 3e ce 8e 8b 3e 15 d1 cb 3e
       -0.10681594 0.31030145 0.2725739 0.39807954
0000e0 0d b2 83 3e 91 4c 34 3e b7 a3 04 3f a7 dc ec 3d
       0.2572178 0.17607333 0.5181231 0.115655236
0000f0 bb 0c 87 3e 5e 19 f7 3c e7 d1 d6 3e bf ee 0e 3e
       0.263769 0.030163463 0.41957018 0.13958262
000100 08 08 07 be 42 c4 03 bc 40 6c 86 3e 77 2c 29 3e
       -0.13186657 -0.008042397 0.26254463 0.16520868
000110 2a 12 6f be a2 a4 8a 3e e1 36 0a bd 51 ce 82 3e
       -0.23346773 0.2707873 -0.033743743 0.25548032
000120 1f 90 06 3f 91 61 80 3e 59 a1 65 3e 58 17 f5 3e
       0.5256366 0.25074437 0.2242483 0.47869372
000130 71 26 da 3e ba cd d1 3e 40 61 e2 3e 43 20 32 3d
       0.42607453 0.4097727 0.4421482 0.0434878
000140 a1 a1 15 bc 08 c1 1c 3f 0a 08 bc 3e cb c4 d6 3e
       -0.009132774 0.6123204 0.36724883 0.41947016
000150 1d 60 a5 3e 82 66 65 3e eb 92 0a 3f 9c 26 08 3f
       0.3229989 0.22402385 0.5413043 0.53183913
000160 53 36 a0 3c 52 1e f1 3e 76 e5 88 be 4d 04 cb 3e
       0.019557154 0.47093445 -0.26737565 0.3965172
000170 e4 c6 cb 3e 2b 3e 93 3e d8 4a 74 3e a3 76 7c 3c
       0.3980018 0.28758368 0.23856676 0.015409145
000180 7a 3c 86 be 7d 87 62 be 28 cb 26 3e 4e fc e1 bd
       -0.26218015 -0.22121997 0.16288435 -0.110344514
000190 1b fc f7 bd ed f8 8f 3d 9f ca e3 bd 3c 33 0b 3e
       -0.12108632 0.07029901 -0.11122631 0.13593763
0001a0 93 36 a6 3e b4 2a 8f be 20 31 d5 bd 7b 9e 3e 3e
       0.32463512 -0.27962267 -0.104097605 0.18615143
0001b0 9f 5d 8c be e3 14 e6 be 1c e0 bd bb de 07 f3 bd
       -0.27415177 -0.4493781 -0.005794538 -0.11866735
0001c0 92 6b 52 be 96 02 b0 be 0a 82 7d 3e cd 5f 25 3e
       -0.20548847 -0.34376973 0.24756637 0.16149826
0001d0 52 86 ab 3e c5 77 2c 3e 37 4b a4 3d d5 18 20 3d
       0.33500916 0.16842563 0.080221586 0.03908618
0001e0 5d f8 d7 3e 69 9e ac 3e 13 5c 2b be 0a f0 c7 3e
       0.42181674 0.33714607 -0.16734342 0.39050323
0001f0 de c8 53 be c1 c4 fc 3d 79 59 24 3e 85 cb bf be
       -0.20682094 0.12342215 0.16049756 -0.3745996
000200 fa e4 ab bd eb 3d d7 3d 88 c7 bf bd 61 0a d7 bd
       -0.08393283 0.10509857 -0.093642294 -0.105000265
000210 3b d6 8d 3e cf 97 83 be 65 eb 8c 3d 8f 5f 4f be
       0.27702507 -0.25701758 0.068808354 -0.20251296
000220 d1 79 fe bd ab fe 50 bc 2e da 50 3e dc e0 f5 bd
       -0.124255784 -0.01275603 0.20395729 -0.12005779
000230 6a 1c f6 bd a9 71 8c 3d 89 8e 71 3e dc e0 8e 3d
       -0.12017138 0.068576165 0.23589529 0.06976482
000240 d5 82 75 3d 54 bd 57 3e 99 db 21 3e c0 10 19 be
       0.059939224 0.21068317 0.15806426 -0.14947796
000250 bd 7a 98 be 8f df 3f be dd 85 35 be e7 ba 3d 3e
       -0.29781142 -0.18737625 -0.17726846 0.18528329
000260 45 8b d7 3c 45 e6 0b be e6 d5 84 bd 31 e2 c5 be
       0.026311526 -0.1366206 -0.064861104 -0.38649133
000270 3b 57 9d be 1d da 2e be 31 41 2c be 07 04 94 3e
       -0.30730614 -0.17075391 -0.16821744 0.28909323
000280 36 bc 87 3e 90 cd a9 3c f4 e8 a7 3e df 7b 9a be
       0.2651078 0.020727903 0.32794917 -0.3017263
000290 3f 63 ee 3c fa fa e6 bd c3 e2 28 3d 4d 50 0c 3e
       0.029100059 -0.11278339 0.04123188 0.13702507
0002a0 bd d5 46 be fe be a8 3e d8 fa 8f be dc 93 c9 be
       -0.19417472 0.32958215 -0.28121066 -0.3937062
0002b0 52 a5 d2 be 27 84 38 3e 71 ac 95 be 80 5b b6 be
       -0.41141754 0.18019162 -0.29233125 -0.35616684
0002c0 98 67 1d 3d c8 8a 85 3e 91 71 85 bd 68 d8 db 3e
       0.038428873 0.26082444 -0.06515802 0.42938542
0002d0 70 14 7d be 68 c0 2b 3c 34 83 9a be 8d bb f6 bd
       -0.24714828 0.010482885 -0.30178225 -0.12047491
0002e0 99 8f 70 3d d7 ca 2f 3e 7d 6a 6a 3d 26 bd 0f be
       0.058730695 0.17167221 0.05723046 -0.14036998
0002f0 0c dc c5 bc 8e 1b 44 be 9d 92 52 be 88 57 b9 be
       -0.024152778 -0.19151136 -0.20563741 -0.36199594
000300 b6 30 7a be 4d 92 6b 3e a4 5b a4 bd 7e 7f 2c 3e
       -0.24432644 0.23005028 -0.080252916 0.1684551
000310 dc 77 ef bc 80 d5 5b be 17 d9 8d be 48 93 72 be
       -0.029231958 -0.21468163 -0.2770469 -0.23688996
000320 65 1a 8d be 9d 30 91 be 3f 38 a9 be 1e 2a f1 3d
       -0.275592 -0.28357401 -0.33050725 0.11775611
000330 43 ea 70 be fc 9c 12 3e 9f 5c 82 3e 87 bc 8b be
       -0.23526864 0.14317697 0.2546129 -0.27292272
000340 b5 4b 53 3e 13 47 2e be 92 6a b1 3d fa 07 9e 3e
       0.20634349 -0.170193 0.08662905 0.3086546
000350 95 12 b8 bd 6b c9 b2 be 18 7e 46 3e 7b ec 14 bd
       -0.08987919 -0.34919295 0.19384038 -0.036358338
000360 5a 39 2a 3e 2c 7d dd 3e 78 22 8c 3e d2 6b 4c 3e
       0.1662344 0.4325956 0.27370048 0.19963005
000370 83 b3 44 3e ab ec 38 be f7 29 cc 3d 22 73 4c 3d
       0.19209103 -0.18059032 0.09968942 0.049914487
000380 5a ad c6 3e 19 1c 8d 3e d6 f9 ec 3e d5 9a 2c be
       0.38804132 0.275605 0.4628436 -0.16855939
000390 52 23 ba 3d 12 02 2a 3e d8 62 c8 3e f8 f0 ae 3e
       0.09088768 0.16602352 0.39137912 0.3416822
0003a0 7c fb 77 3e 6c 84 5d be 6a ef 81 be 50 80 a9 3b
       0.24217027 -0.21632546 -0.2537797 0.0051727667
0003b0 53 48 04 3e 0b c7 e6 bd c3 27 b5 3d 5b 86 4f 3c
       0.12918214 -0.11268433 0.088454746 0.01266631
0003c0 d4 00 a1 3e 3e c0 4b be ac 72 02 3e 06 83 a4 3e
       0.31445944 -0.19897553 0.12739056 0.32131213
0003d0 d4 6e 72 bc 31 ee 82 be ba 8b e4 3d 8f 54 87 be
       -0.014796931 -0.2557235 0.11159463 -0.264317
0003e0 4b e6 84 3e 66 4d 8a be a6 de 4c be 19 0d 12 bb
       0.2595695 -0.27012175 -0.20006809 -0.002228564
0003f0 23 a4 80 3d e5 cb 85 3e a8 9e 97 be 78 b9 f4 3c
       0.062813066 0.26132122 -0.29613233 0.029873595

bias f4 [32]
000000 69 cd 15 3e 48 c2 10 3d 76 34 6b 3e 15 9e e1 3e
       0.14629139 0.03534153 0.22969231 0.4406592
000010 96 ba 5c 3e 1a a1 82 3d 69 fd d0 3d 64 14 00 3c
       0.21555552 0.06378384 0.10204584 0.0078173615
000020 b1 1f 85 3d 73 d0 cd 3e 88 aa 3f be 6b 79 43 3c
       0.06500185 0.40198097 -0.18717396 0.011930804
000030 2d 60 bf 3e be 65 7f 3e 55 75 3e 3e 8e 0a 4c be
       0.37378064 0.24941155 0.18599446 -0.19925901
000040 59 f7 52 3d 17 42 c9 3e a6 cf 5f be 62 f7 d2 3e
       0.05150542 0.39308235 -0.21856555 0.41204363
000050 f9 f3 d9 bd 7c fa 04 3f d3 25 21 ba 06 08 55 3e
       -0.10642237 0.5194471 -0.0006147299 0.20803842
000060 d9 50 90 38 18 2f a0 3c 3b b3 28 be 24 b1 86 be
       6.881514e-05 0.019553706 -0.16474621 -0.26307023
000070 19 53 7c be 07 f3 af 3e c3 7c a7 be 14 1e 99 bd
       -0.24641074 0.34365103 -0.32712373 -0.0747644

weight f4 [32, 32, 3, 3]
000000 92 54 d5 3c 15 3d 98 bc 9e 6a 0e bd f7 91 a1 3c
       0.026041303 -0.018583814 -0.034769647 0.019722922
000010 a4 07 5a bd f2 27 3f bd b7 8d 19 3d d4 b6 10 bd
       -0.053229943 -0.046668954 0.037488665 -0.03533061
000020 da 71 16 3d d0 e0 81 bd 56 4e 95 bd 5a 7a 62 bd
       0.03672967 -0.06341708 -0.07290332 -0.055292465
000030 9f cc 90 bc 43 3a 2b bc 63 c7 74 bb 5c 67 29 3d
       -0.017675696 -0.010450902 -0.003735029 0.041358337
000040 e8 ad 70 bd d0 33 42 3c 09 cf 7c bc 09 8f 0d 3c
       -0.0587596 0.011853173 -0.01543022 0.008640059
000050 fd 85 4b 3d 9d 54 37 3c bd 81 85 3d 7a 9e e4 bc
       0.049688328 0.011189607 0.06518886 -0.027907599
000060 a7 61 7a bd 19 f5 d0 bc 37 59 28 bc 05 02 12 3d
       -0.061128285 -0.025507497 -0.010275177 0.035646457
000070 93 71 60 3d cc 81 5a 3b e5 bb 7d 3d 21 61 15 3d
       0.054795813 0.0033341525 0.06194677 0.036469582
000080 46 57 fb 3c ef dd 11 3d b5 af 41 bd 61 0e 81 bd
       0.030681264 0.035612043 -0.047286708 -0.06301571
000090 28 10 8c bc 13 53 16 bb 3b f0 ea bc 2b 4b 62 bb
       -0.017097548 -0.00229377 -0.028679004 -0.0034529667
0000a0 79 79 3c 3c c8 c8 84 3c da 63 6a 3d d2 23 37 3c
       0.011503571 0.016209021 0.057224132 0.011177974
0000b0 71 3c f8 bc 84 13 33 bd 13 5b 33 bc 6c d2 84 3a
       -0.030302258 -0.043719783 -0.010947007 0.0010133511
0000c0 a5 0a 62 3d 9b f0 1c 3d a2 68 04 bc 66 ac 38 3d
       0.055185933 0.038315397 -0.008081587 0.045086287
0000d0 1e 13 5a 3d 0d ac 42 3c 46 33 dc 3a c4 1e 50 3d
       0.053240888 0.01188184 0.0016799949 0.05081059
0000e0 ec 4e 8d 3c b2 82 65 3d cd 82 94 3d 64 97 e1 3b
       0.017249547 0.056032844 0.07251511 0.0068845022
0000f0 7c f7 75 3b 82 a1 21 3d 9d 77 bb bc ef de 30 3d
       0.0037531545 0.039460666 -0.022884184 0.043181356
000100 b6 fd 3f bd 03 bd 8b bd 55 eb c8 3a 25 59 45 bd
       -0.046872817 -0.068231605 0.0015328923 -0.048180718
000110 98 86 64 3d ae ed 82 3d 69 cd 24 bd d2 69 51 bc
       0.05579242 0.0639299 -0.040234957 -0.012781577
000120 41 d0 d8 3d 40 83 0b 3d 49 71 d6 3b c8 0d c5 3d
       0.10586596 0.034060717 0.0065442664 0.09621769
000130 e0 79 83 3d 6b 4e ff 3c 1e dc 6a 3d 28 c1 34 bb
       0.0641973 0.031165322 0.057338826 -0.002758095
000140 2a 98 81 3d b1 91 83 3c 04 75 b8 3d 20 58 32 3d
       0.06327851 0.016060682 0.09006694 0.043541074
000150 3e 89 02 b8 f6 d3 86 39 23 e2 8a 3c 74 c5 be 3c
       -3.1122232e-05 0.00025716395 0.016953534 0.023287512
000160 b0 f5 b1 3d 34 9d 38 3c 71 b8 0e 3b 9f 0e 51 3c
       0.08689439 0.011267949 0.0021777416 0.012759834
000170 51 8c 40 bd 14 40 54 3d 7c bf 07 bc 79 f4 2b 38
       -0.047008816 0.051818922 -0.0082853995 4.099726e-05
000180 68 fc 1a bd 05 05 c2 bc e4 ae 77 3d 50 92 01 3d
       -0.03783837 -0.023684034 0.060469523 0.031633675
000190 79 f3 55 bd 47 03 37 bc f0 62 c6 3c 19 cf 06 3d
       -0.052234147 -0.011170215 0.024217099 0.032912347
0001a0 d8 21 7c bc 17 05 8a 3c 29 66 19 3d cd 53 81 bd
       -0.015388928 0.01684813 0.037450943 -0.06314812
0001b0 3c fa 11 bd 3e f5 4e bc 2c e2 83 bc 7d d2 fc bb
       -0.035639033 -0.0126317125 -0.016099058 -0.007715522
0001c0 95 c5 a4 bc ab b7 38 bd d7 b4 70 3c ba a5 70 bd
       -0.020113746 -0.045097034 0.014691553 -0.0587518
0001d0 07 74 94 bb bf 6a 2f 3d 6d 62 04 3d 0d d4 5e bd
       -0.004530433 0.04282641 0.03232043 -0.054401446
0001e0 0a 7d 59 3d f9 8f 5a 3c f4 65 35 3d b3 88 d9 bc
       0.053097762 0.01333999 0.044286683 -0.026554441
0001f0 07 37 40 3d 52 89 1d 3d 90 7d 06 bb 54 a8 6e bd
       0.04692748 0.038461037 -0.0020521618 -0.058266
000200 2b 9f f2 bc 8d 5c 55 bc 52 0f 9a bd 0f 5a 05 3c
       -0.029616913 -0.013022554 -0.07522453 0.008139147
000210 27 eb 84 3c 98 52 2a 3b c9 ea a3 bd 8c 6f 27 bc
       0.01622541 0.002598917 -0.08003766 -0.010219466
000220 53 02 67 3b cd 49 15 bd 07 fc 4b bd 6c ba 6c bd
       0.0035249188 -0.036447335 -0.0498009 -0.057794973
000230 91 ab 23 bc f2 b3 d6 3c c5 77 f7 bc 82 42 fc 3c
       -0.009989635 0.026208851 -0.030208478 0.030793432
000240 a0 6b 18 bc 51 e3 5e 3d e5 d9 5b bd 1a 9d 6d 3b
       -0.009303004 0.054416005 -0.053674597 0.003625697
000250 f7 ff 36 3d c9 4a 7a ba bb 3d 11 bd 1c 35 16 bd
       0.0446777 -0.0009547887 -0.03545926 -0.036671743
000260 8c 8a 9f bc fb 1d 3a bd 9e 58 d8 3b 0f f5 3e bc
       -0.019475244 -0.045438748 0.006602361 -0.011655106
000270 fe a6 e7 3c 0d 5c 9a bb 03 be 35 3d fd fe e4 bb
       0.02827787 -0.0047106803 0.044370662 -0.006988405
000280 f1 4d f9 bc db da 66 3c ee 16 d3 3c 00 e8 6d 3c
       -0.030432673 0.014090265 0.02576777 0.014520645
000290 5f d7 a0 bb ee 83 8d 3c 9d 28 12 bc db 83 1e 3d
       -0.0049084867 0.017274823 -0.008920816 0.038699966
0002a0 b5 0f 0a bd 44 93 ab 3c 23 56 f5 3c b8 ad 34 bd
       -0.033706386 0.020944245 0.0299483 -0.044110984
0002b0 28 75 e2 bc 4d cf a5 ba c3 e7 46 bd cc 91 fb 3a
       -0.027643755 -0.0012650281 -0.04856087 0.0019193231
0002c0 33 9b fa bb 8e 7b 04 bd 1a be a4 3c 35 5c 5c bd
       -0.0076478957 -0.032344393 0.020110179 -0.053798873
0002d0 2a 8d fb bc 48 bc fc 3b 5b 80 1f 3d b7 fd db 3b
       -0.03070696 0.0077128746 0.03894077 0.006713595
0002e0 75 11 71 bd 69 ef 3b 3d 71 5d 70 3d 4b 02 53 bc
       -0.05885454 0.045882616 0.058682863 -0.012878965
0002f0 ce fa 4d 3d 3a fe 8e bd c4 0c c1 bb 08 86 3c bd
       0.050288014 -0.069820836 -0.0058914144 -0.04602626
000300 e0 5a 37 bd 1b 02 ce bb 25 eb 21 3d 54 6c 00 bc
       -0.0447644 -0.006286872 0.039530892 -0.007838327
000310 2c 53 36 bc cb f1 7f ba eb 04 69 bb d2 8b 05 3d
       -0.011128228 -0.0009763508 -0.003555591 0.032604046
000320 bf d1 26 3d de ca 2d bc 10 57 f3 3b f3 a9 5e 3d
       0.040727373 -0.010607449 0.00742615 0.054361295
000330 56 96 c0 ba 5f fb f9 3b 34 8a 4a bd 72 a0 56 bd
       -0.0014693241 0.0076288427 -0.049448207 -0.052399106
000340 c8 bb 7f 3c f7 12 89 3c 38 85 d6 bb 3d 69 2d bc
       0.015608735 0.016732676 -0.0065466426 -0.010584173
000350 d5 b1 8a bd af 0a 40 ba c9 d8 35 3c 4e e8 01 3c
       -0.067722 -0.0007325811 0.011099049 0.007928921
000360 dd a5 bd bb 81 4d ce 3b 45 c4 41 3d 82 22 a5 bc
       -0.0057875947 0.0062958603 0.047306318 -0.020158056
000370 e7 01 d4 bc 97 20 e1 3c 79 50 3c 3d 67 32 32 3c
       -0.025879813 0.02748136 0.045975182 0.010876275
000380 9f a9 5a 3d 26 28 84 bc 49 97 41 bd 5c 15 77 bc
       0.05338442 -0.016132426 -0.047263417 -0.015080776
000390 bc 73 99 bc e3 99 9c bc 24 35 2f 3d 08 d5 89 3c
       -0.018731944 -0.019116348 0.04277529 0.016825214
0003a0 2c d5 ec 3c 27 9b 58 3d 54 27 8b 3c 35 b6 ac 3b
       0.028910242 0.05288234 0.016986527 0.005270744
0003b0 f1 fb 13 bd 38 a2 53 bd a1 f7 87 3a 0c ad 18 3d
       -0.036128942 -0.051668376 0.0010373482 0.037274405
0003c0 49 5d df 3c 63 0a 3f bd 6d d0 43 3d 7a 3f 37 3c
       0.027266162 -0.046640765 0.047806192 0.011184568
0003d0 64 71 b6 3c c7 27 66 3d 04 a3 9e 3b 89 6b 40 3d
       0.022270866 0.05619028 0.0048412103 0.046977554
0003e0 44 ae 36 bd 47 cc 12 bd 7e 3c 25 3c a0 5b e0 3c
       -0.044599786 -0.035839345 0.010085223 0.02738744
0003f0 21 7b c7 ba 3e ae 36 3d 06 88 fe 3a 92 5d af 3c
       -0.001521919 0.044599764 0.00194192 0.021406922

bias f4 [32]
000000 3e 00 3a 3c 2c d4 fe ba ac 5b 88 bb 12 14 5e bc
       0.011352597 -0.0019441894 -0.0041613188 -0.01355459
000010 97 bb 45 3d 28 25 3b bd 43 b0 36 3d 0c f0 d4 3c
       0.048274603 -0.04568973 0.04460169 0.02599337
000020 e2 22 c1 bc d2 de 46 3d de f6 4c 3d 3e 77 14 3d
       -0.023576204 0.04855234 0.05004012 0.03624653
000030 7d 80 36 3a 00 65 9b 3d 27 1b 64 3d ef 09 15 3d
       0.0006961895 0.075876236 0.055689957 0.036386427
000040 21 21 b6 bc 34 7d ab bb 92 d3 eb ba 6a 44 f0 bb
       -0.022232594 -0.0052334312 -0.001799213 -0.0073323743
000050 a5 d4 fa bc 41 40 ac 3d f0 6a 88 3a 06 bf f9 3c
       -0.030618975 0.08410693 0.0010407846 0.030486595
000060 9f 3c 5a bc e9 ff ed 3c 11 72 5f bd 9e f4 3e ba
       -0.013320117 0.029052692 -0.05455214 -0.00072843756
000070 86 56 34 3d 4a 38 11 bd 2c 9e 46 3d b7 17 d1 3d
       0.044027828 -0.035454072 0.04849069 0.10209601

weight f4 [100, 800]
000000 3e 3b a0 bc 25 58 91 bd 74 ff da bc 16 c9 44 3d
       -0.019559499 -0.0709689 -0.026733138 0.048043333
000010 b7 07 58 3d 73 58 b0 bd 71 f3 86 bd 9f 1a 49 bd
       0.052741732 -0.0861062 -0.065894015 -0.049097653
000020 4e 46 a4 bd e9 6b fa 3c b9 45 8f 3d c9 8a 4f 3a
       -0.08021222 0.030569034 0.069957204 0.0007917104
000030 b8 5b 2b bc 67 da 81 3c 06 39 d2 bb 82 7d 1e 3d
       -0.010458879 0.015851213 -0.006415489 0.038693912
000040 c4 a8 84 bd 30 d3 7d 3d 72 4b 6e 3c 9c 76 aa 3a
       -0.06477502 0.061968982 0.014544355 0.0013005319
000050 1b 67 61 3d e4 ed a3 bc dd 9b 41 bd e5 a5 7d bb
       0.05502997 -0.020010896 -0.047267783 -0.0038703617
000060 dd b3 3f 3c ad fe a7 3d 87 83 fa bc d0 74 9d 3d
       0.011700598 0.082028724 -0.030580295 0.07688296
000070 dd 20 0e bd 93 df 5e bd c7 86 6c bd 08 59 e2 3c
       -0.03469931 -0.054412436 -0.05774572 0.027630344
000080 55 4c b4 ba 88 52 dc bc a6 b6 06 bd de e9 11 3d
       -0.0013755659 -0.026894823 -0.03288903 0.035623424
000090 d4 6c 74 3d 12 4f 85 bd 41 ab 0e bd 12 3e 6d bd
       0.0596741 -0.06509222 -0.03483129 -0.057920523
0000a0 19 ef 39 3d a6 d7 46 bd 28 8a 81 3d 24 19 f0 3c
       0.045394037 -0.048545502 0.06325179 0.029308863
0000b0 44 f2 38 3d 1e 9b 96 3d f4 a2 80 bd 7a ee a7 3b
       0.045152918 0.07353805 -0.06281081 0.005124864
0000c0 cf b3 e5 3a 63 e3 9c 3d 6a 47 c6 3c 6b 70 07 3d
       0.0017524901 0.07660558 0.024203975 0.033066195
0000d0 dc 80 79 3d dd 31 80 3d be e3 19 3d ad 0c 73 3c
       0.060913906 0.06259511 0.037570707 0.014834565
0000e0 e4 6c 89 3d c8 e0 1c 3d e6 bb ad 3d c0 0c 59 bc
       0.06710222 0.038300306 0.084831044 -0.013247669
0000f0 51 14 61 3d 0c 0c d6 3c dc 7b 0f bd 8d 77 f1 bc
       0.054951016 0.026128791 -0.03503023 -0.029475952
000100 d8 b5 60 3d a5 1e 38 3c d6 7e c8 bc 9d 99 d8 3b
       0.05486092 0.011237775 -0.024474543 0.006610109
000110 3f 9e 95 3c 9c 8a 60 3b b1 18 a9 3d 85 8f 43 bd
       0.018263934 0.0034262305 0.08256663 -0.047744293
000120 f0 59 02 bd ca 77 31 bd fa 31 8e bd 32 bf 8d bd
       -0.031824052 -0.04332713 -0.06943126 -0.06921233
000130 80 80 e6 39 0d 7f 8c bd 0f a9 21 bd 8d 8a 85 3d
       0.00043964759 -0.068601705 -0.039467867 0.06520567
000140 dc 32 8e 3d a0 61 13 bd ac fe a3 bc 68 4d 86 3c
       0.069432944 -0.035981774 -0.020018898 0.016394332
000150 2b 92 9b 3d 07 cc 6d 3d c9 de 64 bd c8 d6 78 bd
       0.07596239 0.058055904 -0.055876527 -0.060751706
000160 f2 03 ba bc 74 90 60 3d 53 62 19 3c 8b e6 71 3c
       -0.02270696 0.05482526 0.009361821 0.014764438
000170 39 52 a0 3d 94 3a b1 3b 49 da 40 3d a1 06 8b bd
       0.07828183 0.0054085944 0.047083173 -0.06788374
000180 74 08 60 bb b9 e7 4d 3c d2 51 28 bd 7a 8b 35 3d
       -0.0034184726 0.012567454 -0.041093655 0.04432247
000190 ad e5 66 bc b1 b3 50 3b 4f a8 0e bd 63 33 2c bd
       -0.014092845 0.0031845386 -0.03482848 -0.042041194
0001a0 fe 7d 45 bd ff 0d 71 3c f1 ce 19 3d 2d a3 65 bd
       -0.04821586 0.01471281 0.03755087 -0.05606382
0001b0 7e 73 54 3d e6 26 a2 3d d0 f6 03 3c e0 5e f5 bc
       0.051867954 0.079175755 0.00805445 -0.029952466
0001c0 15 60 95 bd 93 df 80 3b fe aa bc ba 11 2e 52 bd
       -0.07293717 0.003932902 -0.0014394221 -0.051313464
0001d0 6c 01 01 3d d9 f3 ec bc b5 09 04 3d 5d e3 61 bd
       0.031495497 -0.02892487 0.03223582 -0.05514847
0001e0 60 2b 40 3c 56 97 21 bd 96 fd 0d 3d d1 8a ac 3d
       0.011729091 -0.039450966 0.034665667 0.08424915
0001f0 b8 73 03 3d 54 a6 98 3d 11 42 fd 3c 73 83 83 3a
       0.03209278 0.074535996 0.030915292 0.0010033682
000200 34 3a 7c 3d eb 55 58 bd b5 a0 a4 3d 00 8b 6d bd
       0.061578944 -0.052816313 0.08038465 -0.05799389
000210 05 7d 53 bd 37 62 95 3d c9 fc 98 3d 8b c6 9c 3a
       -0.0516329 0.072941236 0.0747009 0.0011961026
000220 35 ff 16 3d 13 09 50 bb 8d 8d 4b bd 13 9e bc 3c
       0.03686448 -0.003174369 -0.04969554 0.023024594
000230 f2 c0 92 bc 1d 72 45 bd 12 67 84 3c fd c5 2b bd
       -0.01791427 -0.04820453 0.016162429 -0.041936863
000240 9f 99 8b bd bf 44 80 3d b5 9d 42 bb 36 76 6d bc
       -0.0681641 0.06263112 -0.0029696051 -0.014493516
000250 0a 11 ab 3d 47 77 f8 bb 26 1e 3f 3d 8e bd c6 3c
       0.08352859 -0.0075825783 0.04665961 0.024260309
000260 f0 ad 05 bd bb 75 4b bc 95 04 eb bc a5 2e f4 bb
       -0.032636583 -0.012418206 -0.028688708 -0.0074518495
000270 71 0b 77 3d 57 5d 82 bc 07 9d 3d bd b9 43 0b 3d
       0.060313646 -0.015913649 -0.04629233 0.034000132
000280 5e 76 80 bb 9b cf 18 3c 9d 2a 7f 3d af 10 82 3d
       -0.0039203605 0.009326841 0.0622965 0.063508384
000290 3a 12 4a bd b0 f7 a4 bc 72 aa b5 bc f9 f8 69 bc
       -0.04933379 -0.020137638 -0.022176001 -0.014280551
0002a0 98 73 13 bd 7d c1 a0 bd 3f 1a 45 bc c5 b1 0c bd
       -0.03599891 -0.07849405 -0.012030183 -0.03434922
0002b0 4c bb 37 bc 00 f0 5b bd 02 0d b0 3d 01 d8 06 3d
       -0.011214089 -0.05369568 0.08596231 0.03292084
0002c0 bc 6a 23 bb 97 3d 83 bd e5 ce 78 bd 5e 61 87 bd
       -0.0024935445 -0.06408232 -0.060744185 -0.06610368
0002d0 90 31 84 bd a1 76 9b bc 2f c7 ad bd ac d7 51 b6
       -0.06454766 -0.018977465 -0.08485257 -3.1268964e-06
0002e0 d7 6c 0e 3d 6d 55 25 bd 09 45 2d bd 29 fd 94 bd
       0.034771767 -0.04036467 -0.042302165 -0.07274849
0002f0 9f be 18 bd a0 05 12 3d 2d 4e 9a 3d a6 bd a7 3d
       -0.037291165 0.035649896 0.07534442 0.081904694
000300 f5 6c b3 3c f8 fe 1a bd 84 37 32 3d d7 e1 91 3d
       0.02190254 -0.037840813 0.043509975 0.07123154
000310 3d e6 13 bd 6f 5f 61 3c 59 fc ae bd e4 01 0d 3d
       -0.036108244 0.013755663 -0.08544225 0.03442563
000320 cb 36 88 3d db de 95 3b 31 e0 33 bd 50 62 80 3d
       0.06651076 0.0045736856 -0.043914977 0.062687516
000330 1b 3f 92 bd 46 1e f8 bc 6a eb b1 bd de 06 57 3d
       -0.07140943 -0.030287873 -0.0868748 0.052496783
000340 e2 c8 10 bd 0a d9 9e 3c b2 ad 2d 3d b2 e7 82 bb
       -0.035347827 0.019390602 0.042401977 -0.0039949054
000350 bd 80 83 bd d3 89 4a 3d 6e 9c ab bc a1 3f 83 3c
       -0.06421039 0.049447846 -0.020948615 0.016021552
000360 68 b7 a1 bd e6 67 2c bd 67 ec 4a bd 6f f2 63 bd
       -0.0789631 -0.042091273 -0.049541857 -0.055651125
000370 01 cf 32 3d 2c 60 89 3d ca dd 7f bc e2 4f 61 3d
       0.043654446 0.067077965 -0.0156168435 0.055007823
000380 cb 90 50 3b 8d ad a9 3d e2 0d 9f 3d fb 84 6b 3d
       0.0031824585 0.08285055 0.0776632 0.057499867
000390 1b 46 e5 bc 7d 43 84 bd 8c 8f d2 3a f7 f4 06 bc
       -0.02798753 -0.06458185 0.0016064509 -0.008237115
0003a0 bd e7 a2 bb 26 25 0f bd 94 a9 9d 3c 1e b3 ab 3d
       -0.004971473 -0.034947537 0.0192459 0.08383773
0003b0 f0 a7 89 bd e0 25 ad 3d f4 e8 07 3c aa 2b 4e bc
       -0.06721485 0.0845449 0.008295286 -0.0125836525
0003c0 11 6f 99 3d 74 ca b0 bd 84 be 8d 3d a2 ba 8a 3a
       0.07491887 -0.08632365 0.069211036 0.0010584185
0003d0 87 b9 18 3d 98 29 14 bd 26 69 fe 3c 59 d4 4f bd
       0.037286308 -0.03617248 0.031055998 -0.05073962
0003e0 b0 e0 20 bd f4 db 0d 3d e9 c5 91 3d 46 5e a2 3d
       -0.03927678 0.03463359 0.071178265 0.079281375
0003f0 8e 4b 9f bd d4 01 7a bd fe 7e 92 3b 66 15 bf 3c
       -0.07778083 -0.0610369 0.004470705 0.023325633

bias f4 [100]
000000 22 a5 84 bc 76 cd 29 bd 5e 0d 02 3c 97 ef 69 3c
       -0.016192023 -0.04145571 0.007937757 0.014278314
000010 3d b8 28 bc 49 6e 0c bd ea 22 2e 3c 7e 93 e3 bc
       -0.010297832 -0.034284864 0.010628441 -0.02778029
000020 c1 64 fa 3c 76 80 ab 3b 30 dc 44 bc fc 1d c9 3b
       0.030565621 0.0052338196 -0.012015387 0.0061376076
000030 f3 94 c6 3c 20 e5 72 bc 3a 56 d3 bc ac f1 ef 3b
       0.024240946 -0.0148251355 -0.025797952 0.0073225107
000040 89 e5 9a bc 16 a8 ca 3c a5 a9 9c bc 4c 21 67 b9
       -0.018908279 0.024738353 -0.019123862 -0.00022042281
000050 dd 2a 10 3d 2f 23 1a 3c b5 d7 e2 bb 92 26 5e 3b
       0.035197128 0.0094078025 -0.006922687 0.0033897501
000060 af 6f 5f b9 8a c2 c3 bc 7e 0f 7c bb 90 c0 11 3d
       -0.00021308543 -0.023896474 -0.0038461383 0.035584033
000070 bc bf 09 bd 5d ac 00 3d a9 ad 98 3b 12 9b 3b bc
       -0.033630118 0.03141438 0.004659374 -0.011450546
000080 93 11 fd bc aa bc 8e bc 76 72 93 3c bc 29 30 3b
       -0.03089217 -0.017423946 0.017998915 0.0026880344
000090 a5 54 73 bc 91 c4 06 3d 25 14 9a 3c 79 56 df bc
       -0.014851724 0.032902304 0.018808434 -0.027262913
0000a0 57 e0 55 3a be 67 91 bc 62 54 11 bd 9a cd ce bc
       0.00081587344 -0.017749663 -0.035480864 -0.025244523
0000b0 82 d6 98 bc c8 66 a0 3c ba 60 0e 3d 05 45 43 3c
       -0.018656973 0.01958026 0.034760214 0.011918311
0000c0 e3 8b c1 3c 77 71 f0 3c 3c 2b a9 bc a1 7c 1f 3c
       0.023626273 0.02935098 -0.020650499 0.009734304
0000d0 bb 93 bb 3c 1b e1 87 3c 67 89 79 bc c8 b9 22 bd
       0.022897592 0.01658683 -0.015230513 -0.039727956
0000e0 e8 e6 05 3b c0 b1 b8 3c 7b 36 37 3c 05 50 31 bb
       0.002043182 0.022545695 0.011182423 -0.0027055752
0000f0 cc f3 e0 3c c3 9b 86 3c 25 be 0a bd 12 a2 2b 3d
       0.027460001 0.016431695 -0.033872742 0.04190261
000100 d2 e2 bb 3a 6f a5 c1 3c 28 a9 0e 3d 94 e1 f0 3c
       0.0014334565 0.023638455 0.03482929 0.029404439
000110 e3 d9 13 bc c0 ad 0e 3d 8a 52 c2 bc 60 2c 69 3c
       -0.009024116 0.03483367 -0.023720998 0.014231771
000120 c6 87 ab bc 25 63 92 3a ff 1b 9d 3c 31 1f 78 3b
       -0.020938765 0.0011168463 0.019178389 0.0037860388
000130 2b 91 03 bd 86 fb c9 bc 78 70 a2 bc 11 49 04 3d
       -0.032120865 -0.024656069 -0.01982902 0.032296244
000140 0d f8 1a 3d a4 94 ee 3c 1d 9e f7 3c e6 dc 76 39
       0.037834216 0.029123612 0.030226761 0.00023542679
000150 f9 b8 54 3c 5b 08 bc 3c 99 59 34 3b e2 fd ce bc
       0.012983554 0.022953203 0.0027519225 -0.025267545
000160 2f 7f 20 bd 3d 44 6a bc 32 3b 88 bb 28 54 b8 3a
       -0.03918379 -0.014298496 -0.0041574473 0.0014063166
000170 92 ec a0 3c 1b 9c 00 3d 13 a2 d5 3c a4 2b c5 bb
       0.019644056 0.031398874 0.02607826 -0.0060171653
000180 25 9b 3c 3c 6b 6f 05 bc b5 99 aa 3c f0 c2 0f bd
       0.011511599 -0.00814424 0.020825246 -0.035098016

weight f4 [10, 100]
000000 5f 50 96 3d b5 f7 23 3e 5e b9 46 be 50 94 15 3e
       0.07339548 0.16012461 -0.1940665 0.14607358
000010 4f aa cf bd 0e 9b 6e be 89 45 b0 3b 8d d6 98 3e
       -0.10139906 -0.23301336 0.005379383 0.2985119
000020 f5 c8 b1 3d b2 54 e2 3c 5b d6 fa bd 59 00 70 3e
       0.08680908 0.027628276 -0.12247916 0.23437633
000030 f8 d3 ef bb f5 a5 6b bc d6 c9 94 3e 93 5e 37 3e
       -0.00731897 -0.014382829 0.2906024 0.17907171
000040 1e 28 73 3c e7 05 28 3d 8a 46 68 bd e9 76 a3 3d
       0.014841108 0.041021254 -0.056707896 0.07981665
000050 25 fc 92 3c 52 8a e5 ba 51 df d2 3c 4e 12 85 be
       0.017942498 -0.0017512536 0.025741251 -0.25990528
000060 d3 58 19 be de fd c8 bd 7c 51 1a be 2b ee 42 bd
       -0.1497529 -0.09814046 -0.15070146 -0.047590416
000070 06 88 1c be cb 0f 45 3e 58 ed 88 bd a3 45 01 be
       -0.15286264 0.19244306 -0.06685895 -0.1262422
000080 62 fb a4 bc df c3 45 3d 4b 1c 02 3a dd b9 bd bd
       -0.0201394 0.0482825 0.00049633224 -0.09263966
000090 95 f9 1b bd b5 7d c5 bd 92 33 66 3e 57 6b 27 be
       -0.038079817 -0.09643117 0.2248061 -0.1634954
0000a0 e6 30 b3 3c 0e de 63 be e6 f9 a4 be 6f 6f 11 be
       0.021873903 -0.22252676 -0.32221907 -0.14202665
0000b0 f6 09 7e be 41 01 f0 3d 9c 7e 36 3e d4 87 00 bd
       -0.24808487 0.11718989 0.17821735 -0.031379536
0000c0 7e 42 88 be 6b 69 e2 bd 43 f5 18 be c0 d3 ae 3d
       -0.2661323 -0.11055263 -0.1493731 0.08536482
0000d0 10 4a a8 3c 96 ca 52 3e a5 34 d9 ba 44 b8 87 be
       0.020543128 0.20585093 -0.0016571475 -0.2650777
0000e0 43 03 1b 3d f8 34 f4 bb f7 ba 05 be f2 5b 37 3e
       0.037844907 -0.0074526034 -0.13059603 0.17906168
0000f0 1e 1b fe 3d c9 68 d3 bd bd 9e ae 3d 9c f0 77 be
       0.12407516 -0.103227206 0.08526371 -0.24212879
000100 43 ca 13 3e 12 b7 0e be 7f 57 3b be 4a a5 0e 3e
       0.14432625 -0.13937023 -0.18295096 0.1393024
000110 f5 fc 7d 3b 26 f7 37 3e 14 8d 28 be 7d 46 44 be
       0.003875551 0.17965373 -0.16460067 -0.19167514
000120 75 fb 8f 3e 41 f7 3a 3e 8e 91 90 bd 94 51 c0 3d
       0.28121534 0.18258382 -0.07059012 0.0939056
000130 22 93 67 3c 28 7a e6 bc b9 17 37 be 59 d8 38 be
       0.0141342 -0.02813442 -0.17880143 -0.1805128
000140 29 a5 41 3e 8c 58 41 3e 21 70 d4 3d 4a 5d ab 3c
       0.1891066 0.18881434 0.103729494 0.020918507
000150 78 38 32 be 69 a5 81 bd 97 bf e2 bd d4 41 42 3e
       -0.17404354 -0.063303776 -0.11071699 0.18970424
000160 ea 28 84 be fc 89 14 be c3 a3 8a 3e 5d e8 a0 bb
       -0.25812465 -0.14505762 0.27078065 -0.0049105124
000170 e9 ac 5f be 41 9c 83 3e 21 fc 80 bc b8 81 a6 3d
       -0.21843304 0.2570515 -0.015745224 0.08130211
000180 39 96 70 3d b6 6e 04 be 81 ac 26 3e bb 18 21 be
       0.058737013 -0.12932858 0.16276743 -0.1573209
000190 0d c7 ed 3d 7f 04 1b be 0f 65 a0 3b 05 e6 69 3e
       0.116102315 -0.15138434 0.0048948596 0.22841652
0001a0 82 6a 18 bd 38 e0 2f be 0b 77 2c 3e 94 4d 95 3c
       -0.03721095 -0.17175376 0.16842286 0.018225469
0001b0 26 67 be 3e 3b 42 c4 bd c0 d3 5f 3d 0d 3b ee bc
       0.3718807 -0.09582945 0.0546453 -0.029080892
0001c0 94 4a 91 bc 8f 25 95 3e c0 43 08 3e 03 43 a4 3d
       -0.017735757 0.29130217 0.13307095 0.08020594
0001d0 12 4f 4a 3e d8 eb 14 be aa 33 85 be cb 3e 4a 3e
       0.19756725 -0.14543092 -0.2601598 0.19750516
0001e0 67 78 96 3e 9a 7e 0d bd 72 f6 3d 3e 80 55 4c 3e
       0.29388735 -0.034544565 0.18551043 0.1995449
0001f0 fd 8a 06 3e 93 8d 30 be 4c 50 88 be b0 b7 4c 3e
       0.13138957 -0.17241506 -0.26623762 0.19991946
000200 ed 61 04 3e 20 aa 75 bd b2 7d e0 3d ce 58 85 bc
       0.1292798 -0.059976697 0.109614745 -0.016277697
000210 dd 45 0e 3e 21 a3 1b be 24 78 8d 3d d0 e7 75 bc
       0.13893838 -0.15198947 0.06907681 -0.015008882
000220 6d 5f 00 bd 7a f4 48 be af 3b 55 3e 6b 2a 34 be
       -0.031341005 -0.1962451 0.20823549 -0.17594306
000230 a2 2d 95 be 71 c5 3a 3d 9a 91 44 be 8a 7b 13 be
       -0.29136378 0.04559845 -0.19196168 -0.14402595
000240 c9 13 83 be 7b 5d 2e 3e 36 47 5d 3e d1 80 be be
       -0.25601032 0.17027847 0.21609196 -0.37207654
000250 f7 7f 80 3e 61 5b 4b 3e 08 e3 66 bc b3 27 c3 bd
       0.2509763 0.19859077 -0.014092214 -0.095290564
000260 f7 55 2e 3e 5f e0 23 be 5b ab 33 be 43 30 6b 3e
       0.1702498 -0.1600356 -0.17545836 0.22967629
000270 48 db 9a 3d 10 df 17 be 8c b4 0a be 21 e6 bf 3d
       0.07561356 -0.14831185 -0.13545436 0.093700655
000280 cc ec 91 3d 38 12 39 3d 80 a0 0d be c6 6d 5a 3e
       0.071252435 0.04518339 -0.13830757 0.21330938
000290 4d 77 74 be 61 06 88 be 03 50 39 bd b8 75 82 3e
       -0.23873635 -0.26567367 -0.04524232 0.25480437
0002a0 9b 46 4d be 2a 7e 11 3e b2 02 45 be b1 a1 b7 bd
       -0.20046465 0.14208284 -0.1923931 -0.08966387
0002b0 1d 29 db 3d be 9f e7 3d 48 70 8d 3d 20 33 1e 3e
       0.10701201 0.11309765 0.069061816 0.1544919
0002c0 ab ec c8 bd c2 d8 8f 3d 48 f7 81 bd a8 db b0 3c
       -0.09810766 0.07023765 -0.06345993 0.021589115
0002d0 6c c1 3f be fb 7f d5 bd c8 9c 18 be b9 d5 1f 3e
       -0.18726128 -0.10424801 -0.14903557 0.15608872
0002e0 74 03 8c 3e cc 39 ab 3d 98 3c 8a bd d9 81 a7 3d
       0.27346385 0.08360633 -0.067498386 0.08179063
0002f0 77 83 45 3e 35 5f 02 3e 36 36 a7 bd c4 51 6d be
       0.19288431 0.12731631 -0.08164637 -0.23175722
000300 90 9a 46 3e 6a ec 89 3e 13 ad 53 bc 02 1f 77 be
       0.19394898 0.26938182 -0.012919682 -0.24132922
000310 ab 69 8a 3d 9e af 1e 3e d6 8c 0d be 1e 52 2c be
       0.06758436 0.1549668 -0.13823256 -0.168282
000320 31 4a 04 be d8 3a 59 3d ec 8d 5f 3e f5 74 eb bd
       -0.12918927 0.053034633 0.21831483 -0.11496917
000330 5e 4c f1 3d bc c2 9e 3b d5 3d a3 3d 4c f2 41 be
       0.11782144 0.0048449915 0.07970778 -0.18940085
000340 0b 4f bb 3d a5 74 4c be 40 eb 27 be 2a 0b 31 3e
       0.091459356 -0.19966371 -0.16398335 0.17289415
000350 d9 8b c1 3d 55 c7 2d 3e de 34 20 bd 06 fc 95 be
       0.09450502 0.1697057 -0.039112918 -0.2929384
000360 4f 28 27 be 62 24 23 3e 94 81 84 be b2 f7 df 3b
       -0.1632397 0.15931848 -0.2588011 0.0068349475
000370 8e e3 7d 3e 0c af b1 bb 3d 6e da 3c 5b 3b 6f 3d
       0.24793836 -0.0054224785 0.026663894 0.058406215
000380 76 b1 55 3e ea 17 1a 3e 77 44 ba 3d 59 ae f4 bd
       0.20868477 0.15048185 0.0909509 -0.11947317
000390 ae bd 8b bd bc aa 5f 3e 61 25 05 be af b4 77 3d
       -0.06823288 0.21842474 -0.1300254 0.060475048
0003a0 9f 8d 0f be f1 3c 49 be f8 2d 58 3d ab 12 92 be
       -0.14018868 -0.19652154 0.052778214 -0.28529868
0003b0 d9 60 db bd db e3 b4 3d 72 79 4e bc 4a 8b 16 3e
       -0.107118316 0.088325225 -0.012602197 0.14701572
0003c0 5d e7 d4 3d 45 e5 74 3b 2e 68 12 bd c3 74 31 3e
       0.103956915 0.00373681 -0.035743885 0.17329697
0003d0 21 c9 a2 3d 98 dc da 3d dd 84 71 3e 83 16 18 3d
       0.079485185 0.10686606 0.2358584 0.037130844
0003e0 aa de 76 bc 39 24 65 be 7c b5 33 3e e4 84 81 39
       -0.015067736 -0.22377099 0.175497 0.0002470381
0003f0 48 d4 52 be 7c d3 f9 bd 73 a0 1b 3e fa 90 87 be
       -0.20588791 -0.121985406 0.15197925 -0.26477796

bias f4 [10]
000000 fd af 55 3d 77 d5 c1 bd 94 70 29 bd 0f b2 d9 3a
       0.05216979 -0.09464543 -0.04136713 0.0016608852
000010 f2 5d 8b 3d e3 e6 bb 3d 11 7d b8 bd be 18 dd 3d
       0.06805028 0.091748975 -0.090082295 0.10795735
000020 8e 30 6a 3d 20 f9 22 3d
       0.05717521 0.039788365
