AP/Aula3-5/AP_Aula3.3_PL/CNNModel_2.pth (torch, 55471 bytes, 6 tensors)

weight f4 [16, 1, 3, 3]
00000000: d7ca c43e ef49 7fbe ab25 45be 3f5c 9a3e
00000010: fc62 9dbe 8d0d d5be 2470 8e3e 8e74 85bd
00000020: 565c a9bd e927 b43e fdb2 8dbb 4abe db3e
00000030: 56e1 c63d 3651 ac3e fc0d cf3c a029 8e3d
00000040: 30cd 013f 83cc a53e 22a4 afbe 10af 2fbe
00000050: 1bf0 d23e 2c10 a9be 0146 04bd 5d99 eebc
00000060: c823 4c3e 5936 d33e d5c9 edbd 57f4 9dbe
00000070: dfdf 88be 1941 e8bd df4b 42be 9f58 a23e
00000080: 1730 f3be afb9 d93e 0a6a ac3e 945a 91bd
00000090: 1c70 ed3e 9fa9 f13d 9eaa b53e 4b2b 08be
000000a0: c3c0 9f3e 4a59 f83e 5277 733e 9655 143f
000000b0: 62c4 db3c 7174 6ebe f9d5 81be 1117 5a3e
000000c0: 65de a6be fe60 80be c637 8ebe b4c0 85bc
000000d0: aeb6 d1bd 4150 8c3e 9107 573e f7b1 e53e
000000e0: 8a20 33bd 7ec7 bc3e b942 f43d 9cc0 ad3e
000000f0: b926 dc3d e9cc 07be e0ba f73d ea0b 193f
00000100: eb93 273f 68f5 d73e 1bd4 993d dd94 b53e
00000110: 9fc5 263e 2947 503d 303a d6bd feb7 a6bd
00000120: 4e68 103f 9e91 803e 8d72 303f 1bd0 b73d
00000130: 625b 9d3e 8de0 023f e62e 1f3f 97e6 323f
00000140: 0406 433e fa45 3e3d 91fd 083d 620d f03e
00000150: b4aa 653d 95b3 b63e 77fe a03e 99cd 23be
00000160: f490 7f3e 209c b43d a292 0ebe 441f c03d
00000170: be99 f53d 5c22 a9be 7238 82be 6999 b3be
00000180: 1ff9 d73d 9c98 abbe c832 7d3e abe6 00be
00000190: c8ce 243f 2c8a 193f c43d 89be 98bf 063f
000001a0: e58f 243e 0b57 1dbe d744 043f 315a 12bb
000001b0: 61e7 b8be eb46 cebc 3474 0a3f f4b6 05be
000001c0: 7da3 883d 5432 f93e ad66 843e ad7a 0f3f
000001d0: 5b3d 7b3e 4d6b 90be 4c84 063e 2f68 4ebe
000001e0: 0c3f 9d3d da01 8bbe c120 99be 3d84 9c3e
000001f0: b4a0 b0bd 3978 d6bd 338f f63e 9477 4abe
00000200: 01a9 8cbc e953 283e ecb9 83be b95c 05bf
00000210: 1196 993e 9dac f3be 748b 27bf 8f68 1bbe
00000220: ca86 9f3e 55cc 043e 7857 4bbd b954 2abe
00000230: c75b 433b 98eb 75be 376d 973e 2035 583e
0.38436005 -0.24930547 -0.1925265 0.30148503 -0.30739582 -0.416119 0.27819932 -0.06516372
-0.08269565 0.351867 -0.0043243156 0.42918617 0.09710948 0.3365571 0.025275223 0.06941533
0.50703716 0.32382593 -0.3430491 -0.17156625 0.4119881 -0.3302015 -0.032293323 -0.029125864
0.19935524 0.412524 -0.11610762 -0.3085048 -0.267333 -0.113405414 -0.18974255 0.31708238
-0.47497627 0.42524478 0.3367465 -0.070973545 0.46374595 0.11799931 0.35481733 -0.13297765
0.31201753 0.48505622 0.23775986 0.57943094 0.026827041 -0.23286606 -0.2535856 0.21297862
-0.3259155 -0.25074 -0.27776927 -0.01632724 -0.102399215 0.2740498 0.2099898 0.4486234
-0.043732204 0.3687095 0.11926789 0.33936012 0.10749573 -0.13261761 0.120961905 0.59783804
0.6546008 0.42179418 0.07511159 0.35465136 0.16286324 0.050849114 -0.10460317 -0.081405625
0.56409156 0.25111097 0.6892479 0.0897524 0.30733782 0.5112389 0.62180936 0.698831
0.19045264 0.046453454 0.033444945 0.4688521 0.056071 0.35683885 0.3144414 -0.15996398
0.24957639 0.08818841 -0.13923123 0.093809634 0.119922146 -0.33034027 -0.2543369 -0.3507798
0.10545563 -0.3351487 0.24726403 -0.12587993 0.64378023 0.5997646 -0.26804936 0.526361
0.16070516 -0.15365236 0.5166754 -0.002233159 -0.36114028 -0.0251803 0.5408356 -0.13058072
0.06671808 0.4867121 0.25859585 0.56046563 0.24535124 -0.28206864 0.13136405 -0.2015693
0.07678041 -0.2714985 -0.29907802 0.3056964 -0.08624402 -0.104721494 0.48156127 -0.19772178
-0.017170431 0.16438259 -0.25727785 -0.5209461 0.29997304 -0.4759263 -0.65447164 -0.15176605
0.31157523 0.12968571 -0.049643964 -0.16633882 0.0029809342 -0.24015653 0.29575512 0.21114016

bias f4 [16]
00000000: 379d 9f3e 577b 133e 8f90 e839 fd75 8c3e
00000010: e211 693d d73a 04be 89cf ac3e 603e 923d
00000020: ece1 a53e 8bb0 223e af33 743e 34bd 883c
00000030: ab16 433d 6619 86be 57eb 313f 2e58 39bd
0.31174633 0.14402519 0.00044358193 0.27433768 0.05690182 -0.1291307 0.33752087 0.07140803
0.32398927 0.15887658 0.2384784 0.016691782 0.04762904 -0.26191252 0.69499725 -0.04525011

weight f4 [32, 16, 3, 3]
00000000: a9c1 19bc 7d00 9cbd 00c4 9e3d 35a3 3fbd
00000010: 0a23 883d b854 ba3d 4f51 333d 99e7 783d
00000020: e18b 5cba 091d 683d 2d80 82ba 29c8 ae3c
00000030: 104a 35bd 655d 833d a1cf c5bd 562a 5a3c
00000040: e2bd 113d 7a01 d93c 6e80 8cbd cf2a 8f3d
00000050: 3002 c339 056d 863c 1a24 7f3d 2491 21bd
00000060: 1a5a 05bd 6d30 dfbc b504 c4bb 3e55 75bc
00000070: 0880 033d 1ef4 53bd 684f b3bc 3564 673c
00000080: 4dc0 223c d9fc 99bd 7757 203d 85dd 8dbd
00000090: 93f6 8ebd 818a 293d 7034 e0bb d020 b039
000000a0: 4c22 cabc cfa8 8cbd 800a 20bd 1d94 3a3c
000000b0: 78a5 61bd d868 33bd d1f6 56bd d874 fc3c
000000c0: bbfc 8abd 07f8 833c 31e6 80bd 2369 953d
000000d0: ebda 923d 10ce f43c 1fe7 683b 0f19 7f3d
000000e0: 77e3 1abd 7e5b 4ebd e0c0 eab9 ce9c f33c
000000f0: 5e97 64bd acc7 85bd e943 1b3d 8e21 c6bc
00000100: 12b8 30bd e935 85bd c3ce e63c 45fc f9bc
00000110: 8d79 b4bd 91b2 053d e82b b03c c489 ccbd
00000120: 08c6 86bd 8494 093e 095e 253d 32ad 30bd
00000130: a895 983d 3f66 b5bd c716 443d 84a3 bf3d
00000140: dd47 ddba 02c8 f1bc d253 af3d 0d7c 523d
00000150: 0469 683c de40 8b3d 1bc3 b5bc f267 7e3d
00000160: 5bff 263d 00e9 a1bd 67f4 ae3d 0b9c 963c
00000170: 48a8 0d3d 62cc b53b e9cb 10bd 9ae9 283d
00000180: c17f 14bd 55a2 76bd ed68 8fbc c142 86bd
00000190: 3242 103e f944 7bbd 5566 273d a239 503d
000001a0: 874e e2bd dc1f 833d 4ce8 0c3d 9413 003d
000001b0: abc2 36bd 0f28 143d c985 3ebd 560c 2d3b
000001c0: a16a fcbc 5e14 ecbd e470 79bd 1782 9f3d
000001d0: 2b8c 3b3d ff4c 35bd eb9c 17bd 75b2 91bd
000001e0: 8277 3cbc 82e8 5cbc f290 aabd ecb6 0ebd
000001f0: 7006 4dbd 06b9 373d e050 05bd 56b5 01bd
00000200: 92ef ad3d 72fb b4bd 9da2 9bbd a452 013e
00000210: c205 013d 9d0c 953c fca6 51bd 5770 4cbb
00000220: b465 6dbd 3019 793d b4b6 9f3d eec0 243d
00000230: 68fc 283d aa4b aa3c 16c8 423d 2a8c 8ebd
00000240: 848c 8bbc ed22 69bd 9c42 883c 1998 923d
00000250: 051b f93b 922f 1d3d 8058 d93b 96c6 703d
00000260: 9bd6 ddbb 17c2 1bbd 5f70 9fbd 9dd3 a63c
00000270: 5b73 983d aece 773d b276 623d 6a2b 1abd
00000280: 78be b93c bdf8 7c3d bdb2 89bd ad6f 9fbd
00000290: 2262 ca3c 5d94 1b3c ded5 3cbd 931b 0ebc
000002a0: 8e52 89bc 595b 9b39 8660 913c 7a66 863d
000002b0: a09b 21bc 596a 5ebd f48e a03d 6167 903c
000002c0: 3048 69bd ca96 a33d 75ba a2bc 9b4c 94bd
000002d0: 10e5 4d3d ab8a 623d f957 78bd 4116 853d
000002e0: e2c2 583d 3cd4 acba b0c0 f13c 0bdd bcbb
000002f0: abe4 e2bb d5fd dc3c 2eef 4c3c ac18 a53d
00000300: 5047 993d 17ac 39bd 9c41 a23d e41b fa3c
00000310: 232b 69bd f740 823d bb6b 653d ed91 7bba
00000320: 2694 273d d6fb 6b3b da46 f23c 9343 a73d
00000330: a550 84bd ca14 a2bd 67a3 1e3d cbc3 a9bd
00000340: c3c7 48bd 71c7 9abd e678 013d 96fa 53bd
00000350: 6ed7 89bd 5f2e 003b 3f97 993d c4b4 37bd
00000360: 6ad1 49bd 86d1 96bd 9259 863c eee2 7ebd
00000370: 52ec 463d 2835 93bd 33e6 19bd 1cc3 a9bd
00000380: d4bc 83bd d440 9dbc d1ed 7f3d d376 a83c
00000390: 0116 f33c 55f2 8b3d c0b0 25bd 6733 76bb
000003a0: b9da 96bc 163b 8d3c a21a 8fbd 59d7 04bc
000003b0: aa3a a6bc 3628 473d 227c a13d 6ed2 c5bc
000003c0: 5fbc 8c3d af06 5ebd e234 6d3d b063 febc
000003d0: 93e3 8fbd 6887 82bd 5999 8abc 9c2a 183d
000003e0: 7d0c bb3b fed5 4d3c 1455 703d 1152 a6bc
000003f0: af7e aabd 0786 e5bc 4783 ff3b 51a3 5cbc
-0.009384551 -0.07617281 0.07752228 -0.046786506 0.06647308 0.0909819 0.043778714 0.060767744
-0.00084131776 0.056668315 -0.0009956412 0.021335678 -0.044260085 0.06414298 -0.09658743 0.013315758
0.035581477 0.026489962 -0.068604335 0.06990587 0.00037194928 0.016409406 0.06229029 -0.039445058
-0.03255663 -0.02724477 -0.0059820064 -0.014973937 0.032104522 -0.05174648 -0.02188845 0.014123012
0.009933543 -0.0751893 0.039145913 -0.06927017 -0.06980624 0.041391853 -0.0068421885 0.00033593783
-0.024674557 -0.06868135 -0.039072514 0.011387852 -0.055089444 -0.04380116 -0.052481476 0.030817434
-0.06786486 0.01610948 -0.062939055 0.07295444 0.071706615 0.029883415 0.003553815 0.062279757
-0.037814584 -0.050380222 -0.0004477566 0.029737856 -0.055808417 -0.06532225 0.03790656 -0.024185922
-0.043144293 -0.06504423 0.028174764 -0.0305158 -0.088122465 0.032640997 0.021505311 -0.09987214
-0.0658074 0.1343556 0.040372882 -0.043133922 0.0745042 -0.088573925 0.047873285 0.0935736
-0.0016882379 -0.029514316 0.08560909 0.051387835 0.014185194 0.06799482 -0.02218776 0.06211085
0.04077087 -0.07905769 0.0854271 0.018384954 0.034584314 0.005548046 -0.035350714 0.041238405
-0.036254648 -0.060213406 -0.017506087 -0.06555701 0.14087752 -0.061345074 0.040869076 0.050836213
-0.11050134 0.06402561 0.034401223 0.03126867 -0.044619244 0.036171015 -0.046514306 0.0026405058
-0.030812563 -0.11527322 -0.060898677 0.077884845 0.04578797 -0.044262882 -0.037014883 -0.07114116
-0.011503102 -0.013483169 -0.083284274 -0.034842417 -0.050054967 0.044854186 -0.03254783 -0.031667076
0.0849296 -0.08837022 -0.075993754 0.12629181 0.03149963 0.018194491 -0.05118464 -0.003119489
-0.05795832 0.060815036 0.0779852 0.040223055 0.04125634 0.020788033 0.047554098 -0.06960328
-0.017034777 -0.056918073 0.016633324 0.071579166 0.007602098 0.038375445 0.0066328645 0.058783136
-0.0067699677 -0.038026895 -0.07785105 0.020364577 0.07443877 0.06049984 0.055288978 -0.03763906
0.02267383 0.061760653 -0.06723545 -0.07784972 0.024704996 0.009495822 -0.046102397 -0.008673566
-0.016762998 0.00029631963 0.017746221 0.065625146 -0.009863764 -0.05430064 0.07839766 0.01762742
-0.05695361 0.07987745 -0.0198643 -0.07241174 0.05026728 0.055308025 -0.060630772 0.06498385
0.05292023 -0.0013185809 0.029510826 -0.005763655 -0.006924232 0.026976505 0.012508197 0.080613464
0.07484305 -0.045330133 0.0792267 0.030530877 -0.056925904 0.06360047 0.056010943 -0.0009596635
0.04091277 0.003600826 0.0295748 0.08167186 -0.06460694 -0.079141214 0.03873005 -0.08289298
-0.049018633 -0.07557572 0.03160944 -0.05175265 -0.06730543 0.001955889 0.07499551 -0.044850126
-0.04927198 -0.07364182 0.016400132 -0.062228136 0.048565216 -0.07187873 -0.03757305 -0.08289167
-0.064325005 -0.019195952 0.06248266 0.020564472 0.029673578 0.068333305 -0.040451765 -0.003756726
-0.018414842 0.017240088 -0.06987502 -0.0081079835 -0.020291645 0.048622333 0.078850046 -0.024148192
0.068718664 -0.054205593 0.05791176 -0.031053394 -0.07025828 -0.06373483 -0.016918825 0.03715001
0.005708276 0.012563227 0.058674887 -0.020302804 -0.08324944 -0.02801801 0.007797632 -0.013466672

bias f4 [32]
00000000: 436b c93c 1a8f 9fbd e75b 50bd 5a9d 72bd
00000010: 649b a13d 6539 d93c 68b5 10bd f884 87bd
00000020: 15e8 7f3d 0861 05bd b792 6e3d 3df4 8e3d
00000030: 1007 b93d 1137 7ebd a7ac 67bd 0ed7 653b
00000040: 1bab 2abd 8a6f 58bd a702 cb3d bc88 bc3d
00000050: 78cd d1bd 2ad7 48bd 47e9 e23c e23d 8f3d
00000060: af23 1e3e 3ddd ca3b 8a70 bfbb 9bba dcbd
00000070: ae6d 353d 2097 77bd c560 49bd f8c9 273d
0.02458728 -0.07790966 -0.050868895 -0.059232093 0.078909665 0.026516626 -0.035329252 -0.06617159
0.06247719 -0.03256324 0.058245387 0.069801785 0.0903455 -0.062064234 -0.05656114 0.003507081
-0.041667085 -0.052840747 0.09912615 0.092057675 -0.10244268 -0.04903332 0.027699126 0.06994225
0.154433 0.0061909244 -0.005842273 -0.1077778 0.04429405 -0.06044686 -0.049164552 0.040964097

weight f4 [10, 800]
00000000: 8cff 863c 0bab 44bd cacb 37bc 32ff 743c
00000010: 69f7 2d3c ea28 e1ba 4069 06bd db5e d6bc
00000020: b769 733c b43d 0b3d c5f6 1d3d ac4c 51bd
00000030: 89b8 a53c 0685 f33c 71ac 683c 54f1 91bc
00000040: 123c 86bc b3a8 08bd 982e aabb 5064 9cbb
00000050: f954 1ebd 8eff beba f86c 55bd e511 dcbc
00000060: dbff 823d 10d8 7dbc c658 a2bc 0edf 88bb
00000070: 7481 50bc 037a c03b 0100 a0bc 76f9 cb3c
00000080: 9d64 923b 42c2 21bc 0109 d5bc cdaf eabc
00000090: 713b 513b 2a23 08bc 2015 863c 28c4 6abc
000000a0: ea26 123c f61f cdbc ff42 d33c 3b54 f7bc
000000b0: da9a 00bc 1c8c 093d b24f 3f3c 845f d13c
000000c0: 8db6 73bc ad2e 833c 3a91 db3c 4163 333c
000000d0: 713e fdbc 217d f63c 1f08 2f3b 22f4 bebc
000000e0: f592 053d 9c1f 353c d1bd 323d 3463 d33c
000000f0: a678 063c debb 35bd e0da e6bb b495 45bc
00000100: 9aaf 1bbd 6787 d73c 7a4a e53c c597 02bb
00000110: abba c1bc b24c 17bd 5933 acbc e246 3c3d
00000120: ed3a e13c 9bca c8bc f971 233c 1966 a13d
00000130: 9200 9a3c c5c2 213d dc9b 1f3d fe3c 5fbd
00000140: 0545 753c 3c01 18ba 25b4 083d c7cc cfbb
00000150: ca91 973c 34cd 383d 700b 39bc fc66 d1bb
00000160: 6dcd 83bc b732 4d3d 4078 a03a f538 7dbc
00000170: 663b 1c3a d291 92bc b3fa 33bb 8478 76bd
00000180: bd69 e8ba 1502 7ebd fd85 93bd 301f 573d
00000190: 8e1e 773d 67be 083d 0197 423d 6743 7c3d
000001a0: 1aaf d4bc 1b90 e73d 71b7 dcbb bd98 bf3b
000001b0: 6fd5 d13c 36b4 ce3c 0db7 ef3d 2cc6 003c
000001c0: 4bbc b83b 0c18 cd3c 3594 943d f75f ad3d
000001d0: a9dc c4b7 975e fabb 8879 15bc cc59 363d
000001e0: ac0d a83c 8641 3abd 6257 a8bd b0eb d7bd
000001f0: 49d6 393d 3f62 51ba fa81 113d 7790 4a3d
00000200: 0b51 5f3d b9c3 193d c410 1f3d 0d90 b5bc
00000210: 368e e2ba 36cd d33c 4bb7 2c3d 7e25 853c
00000220: 3a7f e7bc c5eb b33a bf46 3c3c 533b 7a3d
00000230: be67 103d d8b5 0dbd 65e5 32bd 1285 8139
00000240: 4535 f6bc 2125 c93c c595 39bd 2273 1cbd
00000250: c0a9 fe3b ac7f 8b3b e00d e93c 6044 c7bb
00000260: b526 783c af14 133c 795f 913c f42d 753d
00000270: 01fe 603d c604 a8bc d5bb 563c f942 24bc
00000280: 9ca6 0fbd d447 cbbc 55ad 09bb f2f2 94bb
00000290: d73a d6bb 0f29 7abd 9655 c33a 0593 503d
000002a0: 6675 2e3d ab20 9abd 63e4 88bd 87fd ed3d
000002b0: c341 683d 355b 3e3d c292 793a 896a ed3d
000002c0: 281c ea3c d1ef 9ebc 47b3 cf3b 020b 5c3d
000002d0: bea9 b13d e60f 803c 48fd 35bd f863 13bd
000002e0: 3f72 f63b 6268 92bc 7f30 983b d776 f3bb
000002f0: 81ee 85bd fa5d 62ba 8937 c8bc 746f 093d
00000300: 9055 72bd 14d0 67bc e97f 09bd de99 dfbc
00000310: 679d 063d 843a d2bc b81c 5bbd 181b c4bc
00000320: aa21 8a3b 452a 92bb 8492 303c 7836 66b9
00000330: f752 f13b 1951 0c3c 781d 28bd ca61 a2bb
00000340: 0f67 ebbb afce 4e3c af8f 453d 2e65 35bc
00000350: 6548 5ebd e3c5 fe3c 7e57 5cbd a432 84bd
00000360: adcd 13bd 6f80 40bd 0cf0 1a3d 3712 20bd
00000370: 7caa adbd 9548 febb 5bb4 2bbd 1250 3abc
00000380: 7fb6 063d be6b c63c f8c1 6d3d 20a2 f43b
00000390: 0d1e b7bd 048e d2bc f9a2 8fbb 1fc3 bfbb
000003a0: 43fc f73b 6122 0a3c 30da c4bd bc5b 623d
000003b0: 1a59 4fba 6e6e d53c b8ed de3c 2f99 7a3c
000003c0: e2cb b73d e8f2 50bc e08c 00bd f454 103d
000003d0: ff21 033d 4809 993c da65 8ebd 2617 76bd
000003e0: 3b65 a2bd 2d94 c03d 4fe7 3dbc e59c f43c
000003f0: 4bb5 483d a4dd 40bd b3de bebd b0b6 2ebc
0.016479276 -0.04801468 -0.011218021 0.014953421 0.010618069 -0.0017178331 -0.032815218 -0.026168277
0.014856747 0.03399439 0.038565416 -0.05109851 0.020229595 0.029726516 0.0142012695 -0.01781527
-0.016386066 -0.03336401 -0.0051935427 -0.0047727004 -0.038655255 -0.0014572011 -0.052105874 -0.026864002
0.06396457 -0.015493408 -0.019817721 -0.004176981 -0.0127261765 0.00587392 -0.019531252 0.024899226
0.0044675604 -0.009872975 -0.02600527 -0.028648281 0.00319263 -0.008309165 0.016367495 -0.014328994
0.008920411 -0.025039654 0.025788782 -0.030191531 -0.0078494195 0.033580884 0.011676716 0.02555824
-0.0148750665 0.016013468 0.026802648 0.010948957 -0.030913563 0.030088963 0.0026707721 -0.023309771
0.032610852 0.0110549 0.043638054 0.02580414 0.008207476 -0.044368617 -0.007045135 -0.012059618
-0.038009264 0.026309682 0.027989615 -0.0019926887 -0.02364858 -0.036938377 -0.021020578 0.045966037
0.027493918 -0.024510672 0.009975904 0.07880802 0.0187991 0.039492387 0.038967 -0.054501526
0.014970069 -0.0005798524 0.033374924 -0.00634155 0.018502135 0.045117572 -0.011294231 -0.0063904505
-0.016089166 0.050097194 0.0012242869 -0.015455474 0.0005959779 -0.017891798 -0.002746266 -0.060173526
-0.0017731708 -0.062013704 -0.072032906 0.052519977 0.060331874 0.033384707 0.04750729 0.061587717
-0.025962401 0.11306783 -0.006735735 0.0058470652 0.025614468 0.025232416 0.11704836 0.007859748
0.0056376806 0.02503588 0.07254831 0.084655695 -2.3467774e-05 -0.0076406705 -0.009123214 0.04451923
0.020514332 -0.045472644 -0.08219792 -0.10543001 0.045370374 -0.0007987357 0.035524346 0.04945418
0.054520648 0.03754017 0.03883435 -0.022163415 -0.0017284814 0.025854688 0.04216699 0.01625323
-0.028258909 0.0013726881 0.011491477 0.061091732 0.035255186 -0.034597248 -0.0436758 0.00024703942
-0.030054698 0.024553837 -0.045308847 -0.038195737 0.0077717006 0.004257163 0.028448999 -0.006081149
0.015145947 0.008977099 0.01774572 0.059858277 0.054929737 -0.020510089 0.013106306 -0.010025733
-0.035071 -0.024814524 -0.0021007855 -0.004545563 -0.006537776 -0.061074313 0.0014902826 0.05092146
0.04259243 -0.07525762 -0.06684186 0.11620622 0.05670334 0.0464737 0.0009520465 0.115925856
0.02857788 -0.019401463 0.00633851 0.053721435 0.08674954 0.015632581 -0.044431 -0.03598401
0.0075209434 -0.01787204 0.004644453 -0.0074299383 -0.06539632 -0.00086352194 -0.024440544 0.033553556
-0.05916363 -0.014148731 -0.03356925 -0.02729505 0.032864954 -0.025662668 -0.053494185 -0.0239387
0.004215439 -0.0044606053 0.01077712 -0.000219548 0.0073646265 0.008564257 -0.04104373 -0.004955505
-0.0071839164 0.012622519 0.04823273 -0.011071486 -0.05426826 0.03110022 -0.053794377 -0.064549714
-0.03608482 -0.046997484 0.037826583 -0.03907987 -0.08479783 -0.0077601173 -0.041920047 -0.011371629
0.032888886 0.024221297 0.05804631 0.007465616 -0.089412786 -0.025702484 -0.0043834415 -0.0058521177
0.0075679137 0.008431048 -0.096119285 0.055263266 -0.00079097005 0.026053634 0.027212963 0.015295311
0.089744344 -0.012753226 -0.03138435 0.035237268 0.032014843 0.018681183 -0.069530204 -0.06008067
-0.079294644 0.09403262 -0.011590793 0.02985997 0.04900102 -0.047086373 -0.0931982 -0.010663673

bias f4 [10]
00000000: 2db6 97ba 7d98 dbbc 5449 2b3d eca4 babb
00000010: dec8 c1bd 1980 cebc 46e0 3a3c 9e33 4f3d
00000020: 8c9f 84bb 2638 b9bc
-0.0011574678 -0.02680611 0.041817978 -0.0056959298 -0.094621405 -0.025207566 0.01140601 0.050586335
-0.00404734 -0.022609781
